Instant-ngp/model/experiment10/model_state_dict.pth (torch, 117146 bytes, 14 tensors)

pts_linears.0.weight f4 [64, 63]
00000000: f0eb 24bd 2a58 39bd 952b 013d 4156 9fbd
00000010: 0d12 8cbd ea60 78bd 4e79 d03c a774 ad3c
00000020: f358 3dbc f575 87bb aa87 dcbd 9fdc 1c3d
00000030: 0f58 0b3e 48b6 0fbd 2d40 1d3d c3a7 503c
00000040: b9db e0bd cdb6 9bbc 0f3f 77bd 4182 72bd
00000050: 6ec5 f4bc 2bf1 dbbc a67b babb 46f5 1b3c
00000060: 7b0f 55bd 84ac ebbd c517 b33d ad77 5f3d
00000070: ad00 02bd b0ee 9dbb 0bc2 083a bfbf 853d
00000080: 5287 813d 515c 3f3d f56d 63bc 84ec a53b
00000090: a30f 8f3d 3fd1 863b 7d1d 4dbc 51f2 8ebd
000000a0: 48fc 8cbc 5f18 30bd b2c7 973c 0b58 b93d
000000b0: 556d 18bd 9aba ed3c 0949 c8bc 8b0b 793d
000000c0: 281f 80bc d709 1fbc b82d e33d 6d22 acbd
000000d0: e8af e6bc 2ea2 cd3d b568 aa3c 9d28 fd3d
000000e0: 0790 f3bc 0435 89bd 6447 833d f814 93bd
000000f0: c675 8cbd 3058 3bbd e410 b13d 20f5 25bd
00000100: 7b4a 12bd ee40 a3bd ad26 113e 6cb5 de3a
00000110: ca0d bf3d a061 db3d 46f7 053e 2572 b63d
00000120: 1a78 32bd 87a3 f4bb 4196 1abe 601e a1bd
00000130: eb38 fb3d 4063 4abd 1e61 e73d 3165 c6bd
00000140: ed5d 4cbd aeeb 8dbc 6a53 ab3d e514 e6bc
00000150: 2709 93bd 9e3c bb3c e960 4dbd 67f4 35bc
00000160: d679 943d 8250 9a3d c02d 8fbc 4a5e 6dbd
00000170: 63b3 d43a 0136 84bd ff92 f7bc 3bfc 143c
00000180: 269a 43bd 3de5 1c3d 210c 883d 861e e03c
00000190: 76e9 293b fcd2 a6bd f8c6 2abd c431 be3c
000001a0: c20e 30bd 11d0 64bb e50b af3d afcd 193d
000001b0: 6b85 813d 3b8b a338 c4ab 8abd 48b4 f5bc
000001c0: e136 d4bc 2d62 45bd a581 00bd 37cf 8dbd
000001d0: 1811 03bd 9503 86bd 26f4 39bd bcb3 ce3d
000001e0: e435 323d dea6 ab3d 40a2 bf3d 694c 8bbd
000001f0: 9bab 8dbc a835 3cbd ae38 d4bd c5a4 f73c
00000200: 8a9e eebd f88e 97bd 1b37 acbd 69b1 16be
00000210: 6e79 e03d c3cf 8c3d eab6 d93d 5c8c 75bd
00000220: 5ef2 0d3e 9926 3a3d ba69 503c a3df 62bd
00000230: 5468 2e3d 9a9c 79bd a512 d83d b24b 57ba
00000240: 1b04 6a3c 34d3 783d 4ff5 be3c 7313 e73c
00000250: 5c80 023e c387 613c bc49 853d 9084 793b
00000260: f459 943d 7e86 9d3c f590 af3c a5a1 01be
00000270: 47a9 643d 771d a5bd 5eb1 ef3d c24a a7bd
00000280: 1d8b 903d 8d98 c93c 78e6 933d aad8 c23d
00000290: c836 70bd 41db 573d a1a3 2bbd ede8 00bd
000002a0: ff3a af3c 51df 71bd 36e5 20bc 46f8 5ebd
000002b0: 3e16 fcbd 933e a2bd 79a0 debd 4954 073d
000002c0: aa88 ae3c 208e 913b 37a6 bf3d e45d a6bc
000002d0: 7893 6ebd 2c1b f4bc d199 0d3e 3c29 96bd
000002e0: 9957 06bc 636b a3bd dc90 55bd 8bc5 dcbd
000002f0: a0a9 073d 6fa6 e3bd f350 8bbd e12a b43d
00000300: 9a65 5dbd 9449 dc3d ebb2 8b3d 3524 12be
00000310: c598 213e d1ee 80bd f7e9 94bd 515d b03d
00000320: b157 e73d 8a7f 123e 29d6 a9bd b4c9 a6bd
00000330: fc2c c0bd 9428 b3bc 797e 75bb bb3b 85bd
00000340: 0a4b a2bd e195 043d e87e 03bd bed2 90bd
00000350: db9f 11be 73e6 103c 1088 573d 78b9 8cbd
00000360: 8070 fbbc 3fa2 b93d 7a2e 06be a839 723d
00000370: 619e d93c 0c5a 05bc d026 89bd e048 933d
00000380: e6d8 76bc 05ba 04bb d4fb 07bd 3eab 77bd
00000390: 44c8 e9bd 8c26 233e ff59 febd 1b30 39bd
000003a0: e73e 03bd 64b6 073e e4de ba3c 8a15 01be
000003b0: 9dab 1b3e eb56 f73b e7fa 7a3d 94f2 6d3d
000003c0: 890f 2dbd fd2a c73d 5aa2 04be a6dc 91bd
000003d0: 632a cebd e4a9 7bbd 57da d13d c83c 0cbe
000003e0: 1770 1c3c df0e 973d 3cae 963d 74ed 723d
000003f0: 44e3 00be 5b16 1dbb a73f 4a3d d815 ec3d
-0.04026407 -0.045250095 0.031535704 -0.077801235 -0.068393804 -0.0606393 0.025448468 0.021173788
-0.011556852 -0.0041339346 -0.10768063 0.03829634 0.1360781 -0.035085946 0.03839128 0.01273531
-0.10979409 -0.019008065 -0.06036287 -0.05920625 -0.029879298 -0.026848396 -0.0056910096 0.009518927
-0.052016716 -0.11507514 0.08744768 0.05455749 -0.031738926 -0.0048197135 0.0005216903 0.06530713
0.063246384 0.0467189 -0.013881196 0.0050635953 0.06985404 0.0041142995 -0.012519238 -0.06979812
-0.01721014 -0.042991992 0.01852784 0.09049996 -0.037213642 0.029019643 -0.024448888 0.060802024
-0.015639856 -0.009706936 0.110927045 -0.08405004 -0.02816005 0.10040699 0.020801881 0.12361262
-0.029731764 -0.06699565 0.06410101 -0.07181734 -0.06858401 -0.0457384 0.086458 -0.040516973
-0.03571556 -0.07971369 0.1417491 0.0016991324 0.09328802 0.1071198 0.13082609 0.0890849
-0.04357157 -0.007465783 -0.1509638 -0.07867122 0.122667156 -0.04941106 0.112978205 -0.096872695
-0.049894262 -0.017324295 0.08365519 -0.028086135 -0.0717948 0.022856053 -0.05014125 -0.011105633
0.07249801 0.07534887 -0.01747787 -0.05795125 0.0016227778 -0.06455613 -0.03022146 0.00909334
-0.04775443 0.038304556 0.066429384 0.027358305 0.0025926507 -0.08145711 -0.041693658 0.02321709
-0.042982824 -0.0034914056 0.085471906 0.03754967 0.063242756 7.7983794e-05 -0.06771043 -0.029993191
-0.025905075 -0.04818933 -0.03137364 -0.06924289 -0.031998724 -0.06543652 -0.045398854 0.10092875
0.043508425 0.08381437 0.093571186 -0.068016835 -0.017293742 -0.045949608 -0.10362373 0.030229935
-0.11651333 -0.07400316 -0.08408948 -0.14716114 0.10960661 0.06875565 0.10630591 -0.05994831
0.13861987 0.045446966 0.01272052 -0.055389058 0.042579964 -0.060940363 0.10550431 -0.00082128786
0.014283205 0.060748294 0.023310332 0.028207516 0.12744278 0.013765278 0.06508204 0.0038073398
0.0724372 0.01922917 0.021431426 -0.12659319 0.055825498 -0.080622606 0.11703752 -0.08168556
0.07057784 0.024608875 0.07221693 0.09513982 -0.058645993 0.05269933 -0.041904096 -0.031472135
0.021390436 -0.05905086 -0.009820273 -0.05443599 -0.1230893 -0.07922091 -0.108704515 0.033039365
0.0213054 0.0044419914 0.09357875 -0.020308442 -0.058246106 -0.029798113 0.13828208 -0.073320836
-0.008199596 -0.07979467 -0.0521401 -0.10779866 0.03312075 -0.11115729 -0.06802549 0.08797241
-0.054051973 0.107562214 0.06821235 -0.14271624 0.15780933 -0.062955506 -0.07271188 0.08611549
0.11296023 0.14306465 -0.08292801 -0.081439406 -0.0938358 -0.021869935 -0.0037459417 -0.06505533
-0.07924469 0.0323695 -0.03210345 -0.07071446 -0.14221136 0.008844006 0.052619994 -0.06871313
-0.030693293 0.09064149 -0.13103667 0.059137017 0.026564779 -0.008139145 -0.06696856 0.07191634
-0.015066361 -0.0020252478 -0.033199146 -0.060466044 -0.11415151 0.15932673 -0.12419509 -0.045211893
-0.03204241 0.1325317 0.02281136 -0.12605873 0.15202184 0.007548203 0.061274435 0.05809267
-0.042251144 0.09724996 -0.12952557 -0.071221635 -0.100666784 -0.061441317 0.10246723 -0.13695061
0.009548209 0.07375883 0.07357451 0.059308484 -0.12586695 -0.0023969624 0.04937711 0.11527604

pts_linears.0.bias f4 [64]
00000000: 69c2 363e 8249 273d 042e bc3d c1f5 db3d
00000010: dfc7 fb3d de02 cc3e fa59 8dbe 791b 9c3d
00000020: 0bda 6cbe 2254 6dbd b469 fbbc a7f4 ad3d
00000030: 2433 1cbe 9523 84bd 29f8 8fbe 92f0 ad3d
00000040: 6829 5cbe 9ec7 9c3e 9311 a03e c813 87be
00000050: 92f9 abbe a919 c2be fb78 1d3e bcd2 af3d
00000060: cb91 89bd f45c 963e 1abd e53c f90f ad3e
00000070: bf2f 9d3e 722c 873e 3385 943e 5ff3 5e3e
00000080: 772f fe3b bf81 c9bd edf4 633e dfe6 b63c
00000090: fdeb f5be 4a6c 243e f95e bdbe 3709 a93d
000000a0: 6e50 a8bb 5222 32be 1b57 1f3e 135b d83e
000000b0: ccfd 0b3e a048 bc3a bef3 90be 33c3 46bd
000000c0: ada3 5a3e 28a7 d83b 9a74 ec3d 648f 4d3e
000000d0: b93a 67be 2147 b33d 59c7 713e d3b7 1bbd
000000e0: 25d4 a2be 004f 63be 135b 443e 00ed 7b3e
000000f0: b71d a3bd 4952 313e 3f02 56be 4677 69be
0.17847599 0.040841587 0.09188464 0.10740233 0.12293982 0.39845937 -0.2760771 0.076224275
-0.23130052 -0.057941563 -0.030690052 0.08493929 -0.15253884 -0.06452099 -0.2811902 0.08493151
-0.2150017 0.30621046 0.31263408 -0.2638228 -0.33588845 -0.37910202 0.15378182 0.08585116
-0.06717261 0.29367793 0.028044272 0.3380125 0.3070049 0.26401097 0.29007873 0.21772526
0.007757123 -0.098392 0.222614 0.022326885 -0.48031607 0.16056934 -0.3698652 0.08253711
-0.005136541 -0.17395905 0.15560572 0.42256984 0.13671035 0.0014364906 -0.2831096 -0.048526
0.213515 0.0066117235 0.115456775 0.2007423 -0.22580995 0.08753801 0.23611201 -0.038017105
-0.31802478 -0.22198105 0.19175367 0.24602127 -0.07964652 0.17316546 -0.20899294 -0.22799405

pts_linears.1.weight f4 [64, 64]
00000000: 9550 053b 8156 853d 4e1c 873d cdc9 a0bd
00000010: 15de 183e 8800 e63d d2ee 17be a2ac 2d3d
00000020: b3e6 8ebd c0eb 5dbd a7f6 c93d 2f6f bbbd
00000030: 13d8 66bd 123e 413d 4f8a f1bd 7e9b 143d
00000040: 6e5d 7d3d add9 443b 6633 5d3d 8433 8dbd
00000050: ec1d 873d 415b d53d ad64 d33d cbed f5bd
00000060: e2a0 18bd 264d 163e f672 b4bd 52a1 793d
00000070: 9c9a 583d 8dbd dc3c 92a5 4d3d 01f9 3f3b
00000080: 5dcf 3ebd 92d0 793d f728 733d 32b9 d23d
00000090: 0a81 8f3d 380b adbd c6c8 6f3d 9a37 51bd
000000a0: a0d8 af3d 370c 5fbd 3563 ce3d 2112 aabd
000000b0: 0592 49bd de35 08be 66e0 563d 31f0 493d
000000c0: 39b1 4abd d7f7 dcbd a031 f23d a7f7 933d
000000d0: 6692 ed3c f31d efbd f3e6 983d 9761 543d
000000e0: 25e4 48bd 9d66 13bd 7227 573c 9e11 65bd
000000f0: a925 20bd 5266 93bd 488d c43d 3184 7fbd
00000100: 36db 583d 9e43 87bd 73fd 9fbd d8df 1a3d
00000110: f531 f83d 54ba 0e3e 2bdf f3bb efca 0bbd
00000120: 8fc0 ab3d 7486 263d ba24 e53d 82f6 9c3d
00000130: 6698 ea3c 98d6 d03c 1607 0abe 4dd5 ebbd
00000140: ce0b 593d 09d0 e23d 0086 013e 9634 f1bd
00000150: 17b7 7b3c c80f 9bbb b192 2a3e 78d6 a3bd
00000160: 5a52 8e3c 851e 003d 32a5 c6bc 72d2 333d
00000170: 98fc 1b3e 053b 9d3d 3137 ea3d 8aa9 cdbc
00000180: ff17 b33d 3b7f dabd f11a 443b 9803 c3bc
00000190: 09b6 1dbd adb3 ffbb adcd e4bc e7ee 5a3c
000001a0: 5775 c4bd 1635 083d 2f46 36bd 1a90 1dbc
000001b0: 9622 083d 04da c53c 4903 9ebd 33c6 843d
000001c0: 94d8 ec3d 1913 a73d 4cd9 ac3c 6fc5 053e
000001d0: d22d 51bd 0839 9c3b 2918 04bd f4ea 043d
000001e0: 8749 a03c 80ac d83d 1ad1 0fbd 5f4b f33b
000001f0: f484 f6bd db08 283e d439 adbd 1756 6e3d
00000200: b6fb 93bd 8fdc af3d 3b58 ba3d d293 143d
00000210: 0829 33bd 67eb b0bd 0481 a3bd 70c1 cabd
00000220: 1700 143e 550f 06bd 330d 003e 56e8 d4bd
00000230: 7c1d d8bd f6bb c9bb 7fb1 af3c 9c40 a9bd
00000240: 6e57 b23d c7de db3d 421f e53c 2f29 9b3d
00000250: 9f27 1d3d 957d 07be 5ed8 85bb e4a7 98bd
00000260: 34e9 a0bd 7fbd f8bd 4d27 da3d 5106 c7bc
00000270: 9b05 b23d 0419 123a 25fc 0bbc 725f 0fbd
00000280: 57b9 ae3d 7f82 b43c fcee d3bd 3bdb aabd
00000290: b53b 9a3d 80f1 063b bed7 1ebe dc30 003e
000002a0: 1613 b4bd 6e6b f53d 1998 463d 0284 b2bc
000002b0: 5e02 b6bc 04fc a5bc 6f55 9ebd 816f 753b
000002c0: cea5 c83c e750 a2bd 77b3 063c bbf8 c93d
000002d0: e187 1f3d f20e f63d 9347 ce3d d424 933c
000002e0: 9d43 703c 6eaa 4bbb bda5 ddbd ade8 b83c
000002f0: 8ec3 aebd fac9 f0bd e09f 823b 16d2 243c
00000300: 54ab 1bbd 274b 1a3e 2e19 f03d 4a65 8abd
00000310: f708 053e 3f88 7dbd dd22 ee3d f4f0 87bd
00000320: 05e6 523d d373 023e 93d1 043e 1548 f53c
00000330: 370a 31bc a7df a4bd 9828 3cbc 630e 543d
00000340: 8872 043d 598c dabd b1a4 c13d 5dfc bebc
00000350: 5b0c d2bd fcfe 86bb f8c8 cb3d 93f1 75be
00000360: 9f82 c93c ef35 b0bb 3c96 733d 6ed3 f33d
00000370: 45f5 fcbd 14ab 2abe c077 a53c c56a a83d
00000380: 644d 10bd 5ff4 f7bd 7224 01be ce8a 41bd
00000390: fc5f a1bc ff3d 52bd adcd 183d 391d 06bd
000003a0: 206e a23d 3731 ef3d 519e 073d d311 08ba
000003b0: 9b65 00bd bf82 433d d7af 04bd 5a5d 573c
000003c0: 36a2 30be 8b52 313e b41f 4f3d 6633 dcbd
000003d0: 64e9 193e 06ce cd3d e454 683d 0188 48be
000003e0: 34a3 90be 5dfc 8dbe a57c 843d 4f3d 78bd
000003f0: 37ae 113d 3778 033c a66b 02bd 8df2 febc
0.002034222 0.0651064 0.065971956 -0.078509904 0.14928468 0.1123057 -0.14837196 0.042400964
-0.06977596 -0.054179907 0.09861498 -0.09152066 -0.05635841 0.047178335 -0.117939584 0.0362811
0.06185668 0.0030036971 0.054004095 -0.068945915 0.06597504 0.10417796 0.10321937 -0.12008246
-0.037262805 0.14677867 -0.088109896 0.060944863 0.052881822 0.026945854 0.05020673 0.0029292705
-0.046584476 0.060989924 0.05936524 0.102892295 0.07007034 -0.084494054 0.05854108 -0.051078416
0.0858624 -0.05445501 0.10077516 -0.08304239 -0.04921152 -0.13301799 0.052460097 0.04930133
-0.04948542 -0.10789459 0.118258715 0.0722497 0.029000472 -0.11675634 0.07465925 0.05185088
-0.0490457 -0.03598653 0.013131963 -0.055925004 -0.039098416 -0.071972504 0.0959726 -0.062381927
0.05294343 -0.06604694 -0.078120135 0.03781113 0.121189035 0.13938266 -0.007442375 -0.03412908
0.08386337 0.04065557 0.11188646 0.07664205 0.028637122 0.025492951 -0.13479266 -0.11515293
0.052989773 0.11074836 0.12648773 -0.11777608 0.015363476 -0.004732106 0.16657521 -0.07999891
0.017373253 0.031279106 -0.024248693 0.04390187 0.15233076 0.07677273 0.11436308 -0.025105257
0.08744811 -0.106687985 0.0029923285 -0.023805425 -0.03850368 -0.0078034014 -0.027930105 0.013362623
-0.09592693 0.03325375 -0.044500526 -0.009616876 0.03323611 0.02415181 -0.0771547 0.06483116
0.115647465 0.081579395 0.021099709 0.13063596 -0.05106909 0.004767541 -0.032249603 0.03245063
0.01956631 0.10579777 -0.035111524 0.0074247564 -0.120370775 0.16409628 -0.084582955 0.05818757
-0.072257444 0.0858699 0.0909886 0.036273785 -0.043740302 -0.086386494 -0.07983592 -0.099001765
0.1445316 -0.032729466 0.12505035 -0.10395877 -0.10552499 -0.00615644 0.021446941 -0.082642764
0.08708082 0.10735851 0.027969006 0.075762145 0.038367864 -0.132315 -0.004084631 -0.074538976
-0.0785698 -0.121455185 0.10652027 -0.024295004 0.086924754 0.00055731856 -0.008544003 -0.035003133
0.085314445 0.022034882 -0.10348317 -0.08342596 0.075309195 0.0020590723 -0.15511987 0.12518638
-0.08792703 0.11983381 0.048484895 -0.021791462 -0.022217926 -0.020261772 -0.07731139 0.0037450495
0.024493124 -0.07925587 0.008221499 0.09861895 0.038947944 0.12014569 0.100722454 0.017961897
0.014664558 -0.0031076926 -0.10822628 0.022571886 -0.08533393 -0.11757274 0.0039863437 0.010059854
-0.038005188 0.15067731 0.11723553 -0.067576006 0.12991701 -0.061897513 0.116277434 -0.06637755
0.051488895 0.12739496 0.12970571 0.029941598 -0.010805658 -0.08050471 -0.011484288 0.051771533
0.032335788 -0.106713004 0.094552405 -0.023313696 -0.10256263 -0.004119752 0.09950441 -0.24017935
0.024598418 -0.005377523 0.059469447 0.119055614 -0.12351469 -0.16666824 0.020198703 0.0822349
-0.035230055 -0.12107157 -0.12611559 -0.047251515 -0.01969909 -0.051328655 0.037305523 -0.032742713
0.07931161 0.11679309 0.033109967 -0.00051906443 -0.0313469 0.04773211 -0.032394256 0.013144815
-0.17249379 0.17316644 0.050567344 -0.10751991 0.15030438 0.100490615 0.056721583 -0.19583131
-0.28249514 -0.277316 0.064690866 -0.060605343 0.035566535 0.008024267 -0.031840943 -0.031121517

pts_linears.1.bias f4 [64]
00000000: 468c 553e 6cdf 993e 155f c83c 5c59 c63d
00000010: 6f81 3fbe 1b5e 4cbe 4f4e 153e e2ed e63d
00000020: e0fa 84be 1a2e dc3d aae7 063e 88ff a8bd
00000030: 9eaa c13d f87c b13d f614 49be bedd d3bd
00000040: 0eb1 c0be b8c4 023d e0b5 0fbe f3ba 8fbc
00000050: 776d 97bd c6ed 72be 1aa6 17bd 2820 ac3d
00000060: a298 5abe 3f25 0c3f e662 303e f152 74bc
00000070: cc05 023e daf1 08be 0176 e3be 19b7 1b3e
00000080: d936 593e c5aa 9e3e 3be0 1b3d 7c34 92be
00000090: a6bf 933e f7a0 b6be f3c5 0dbc a0bd cf3a
000000a0: 893b 063e 1f57 7fbe 5894 5d3e 0af8 b43e
000000b0: 4203 49bd 0caf 8c3e 0b03 07be 4dad 6d3e
000000c0: 1aa6 433e aa92 7e3d cb91 07bc 9106 c7be
000000d0: ffd8 54bd 24ba 56bd 22f7 b7bd 9684 e13e
000000e0: cdc2 bebd d996 093e fd0b 483e bf03 a23e
000000f0: 25df abbe 1ed7 b53e ca83 6bbe a4ba 7abe
0.20854291 0.3005327 0.024459401 0.09685013 -0.18701719 -0.19957773 0.14580654 0.11275841
-0.25972652 0.10750981 0.1317431 -0.08251864 0.09456371 0.08666414 -0.19636902 -0.10345028
-0.37635082 0.031925887 -0.14034224 -0.017545199 -0.07393926 -0.23723516 -0.03702364 0.08404571
-0.21347287 0.54744333 0.17225227 -0.014912353 0.12697524 -0.13373509 -0.44425967 0.15206565
0.21212329 0.30989662 0.03805564 -0.28555667 0.28857154 -0.3566968 -0.008653152 0.0015849359
0.13108648 -0.24935578 0.2163862 0.3534549 -0.049075373 0.274773 -0.13184755 0.2321064
0.19106331 0.06215159 -0.008274506 -0.38872197 -0.051964756 -0.05242361 -0.08982684 0.44046468
-0.09314499 0.1343645 0.19535823 0.31643483 -0.33568683 0.35515684 -0.22999492 -0.2448526

pts_linears.2.weight f4 [64, 64]
00000000: 41e6 8abb c6c7 8abd a359 02bd 8907 963d
00000010: e34b b03b 573b 63bd e029 45bd 9656 1b3d
00000020: c56c 4ebe 479b 26bd 104a ed3d ac27 843d
00000030: cb87 dfbd e3c1 ca3d 6e6e b6bd 0412 d93d
00000040: c811 a83d 62dd bfbd cb37 cdbc f423 b33d
00000050: bdff a13d be37 a4bc dcf3 d8bd 6aeb cabd
00000060: ad4f 4bbd 8af3 9e3d fafb 8a3d da4c a0bd
00000070: 92a3 853d e8b7 bcbd b3f7 4bbd 3107 163e
00000080: e1b4 51bd a227 e5bd 421e 0dbe e1f9 08be
00000090: 9906 1f3d f600 43bd 81dd fd3d 6081 7f3d
000000a0: 419b f73d 94df 973c 0f75 bc3d 1f1d 153d
000000b0: 7007 debc 8c5f b8bc e474 063e de40 a4bd
000000c0: b22a 16be 314d 80bd 9957 a53c 4e5f e0bd
000000d0: 4216 073e 8085 1abd 2948 9c3d 3e21 da3c
000000e0: 33f5 a23d 8e7a f0bd 007c 8dbd ca86 31b9
000000f0: 3f06 7dbc dfce 483b 631e d83d 96bf cbbc
00000100: 472c 5c3c ac89 1f3e a56e 9abd d042 753d
00000110: 6307 9fba 057e babd 5ef5 67bc 82d1 d83d
00000120: a89b 4fbe 88a4 543d 39c1 c3bd fe12 93bd
00000130: 9788 093e b876 bb3d 7706 2d3e c50c bb3d
00000140: 3998 26be 8474 1c3e 0e4d ccbd 9170 993d
00000150: dcbd aa3c 016a b93d 83ba cf3d 7ef4 c23b
00000160: 9e6c e33d cc22 383e 9aaf 133e 3d2f 47bd
00000170: dc1c b8bd 746b 84bd 7d9a 32be f104 ac3d
00000180: 563a d53b cfdb 373e 4430 8db9 e8bc 0d3d
00000190: 6937 57bd bfa1 e5bd 30ae eebc 0c50 acbd
000001a0: 1f94 b93b 7db7 a2bc 56ce 6e3e e8b7 713d
000001b0: 5aec a03d 04cf 38bd e009 04be b4d8 8cbe
000001c0: ad3a c33c 14ed ed3c ab8e 7e3d e7c5 10be
000001d0: 70e9 b73d 4949 4bbe 6ffd b0bd a886 9c3d
000001e0: 08be 48bc 992e 883c 65be dc3c d793 4dbd
000001f0: f2ed 34be 1714 143c e1d3 afbd f5fd b03d
00000200: 76ab e0bd 5424 aebd 5a58 bfbd cb74 4f3d
00000210: 10eb ed3c aa01 5cb9 23ab 8fbd 9af8 923d
00000220: 19b0 283e 93e5 a03d 7e52 5bbc f04b d8bc
00000230: ac60 0cbe a05b 2a3d c970 b3bb c5c4 c73d
00000240: c6d0 533e 2101 f8bd b4d0 043c 280d 22be
00000250: 34b4 66be 8e12 b03b 1be8 163d 35dc 503e
00000260: 5a5d 22bd 7a57 06be 6b0e 09be 9f43 c1bd
00000270: f39f fb3b d6ca 8d3d ea6a cc3d f5dc c8bd
00000280: fb4a bf3c 78c2 02be c046 eabd 851b 763e
00000290: 6b20 dd3d 7f6c 3a3d e291 493d 21b0 75be
000002a0: 10bc 09bd 18c9 4cbd 2e46 fd3c e570 073e
000002b0: 7a0c 24bc 01f4 a2bc 789a 0fbc 43eb 5e3c
000002c0: 1a4b 403d ddb5 0bbe f6d2 023e fe11 42bb
000002d0: 62fa 70bd e0ec abbd 6eac 85bd 5e4a 02be
000002e0: 5364 213d e6d4 11bb 9e77 77bd c116 153e
000002f0: 7a10 54bd 24ed 673c 8505 083c 5e1f a33d
00000300: 36b7 3fbd dfff 81bd 2b5d 22bd bd45 883c
00000310: 5d8b debd ccf7 0abc e467 5dbd 7d9d bdbd
00000320: 9b84 ecbc 3d47 6abb 4898 343d 4804 bc3c
00000330: 566c b43d b258 9f3d 5204 e83c 71da 6abd
00000340: 004b ad3d 4ef7 14bb 0212 813d a7c4 1c3d
00000350: 6d13 db39 83f9 b63b 7abb acbd 9fd9 a1bd
00000360: 62aa 5d3d 199f 063c 5a9c 193d 15d5 9ebd
00000370: d79f 33bb d244 07be bc62 293b 5d6a 9cbd
00000380: b58b f0bd faed 3ebd 9c86 7ebd d675 263e
00000390: 47f7 46bd d6ea 35bd 3eb6 a33d e5b2 6f3d
000003a0: 61cf 7abd 4ccd 2dbc 4a98 2d3e 23fc e7bc
000003b0: 1ae7 c73d 38a5 dc3d 467a 8a3d f3a4 df3a
000003c0: 4057 533d da01 4d3d 7193 893d 4755 a73d
000003d0: 8090 89bd 562d 9abd 99a8 33bd 0afe 043e
000003e0: da44 f53d ca55 903d 3d72 583d 3d35 e1bc
000003f0: 5c52 f13d 7097 7cbd 2d06 323d 92cf 713d
-0.004238874 -0.06776385 -0.031823765 0.07325656 0.00538014 -0.055476513 -0.04813564 0.03792437
-0.2015868 -0.040675428 0.11586392 0.06452879 -0.10914572 0.09900262 -0.089077815 0.10599139
0.082065165 -0.09368397 -0.025051018 0.08747092 0.07910106 -0.020046111 -0.105933875 -0.09908183
-0.04963653 0.07761295 0.06786342 -0.07827158 0.06525339 -0.09214765 -0.04979677 0.14651181
-0.05119789 -0.111892 -0.13781074 -0.13376571 0.03882465 -0.04760834 0.12395764 0.06237924
0.12090159 0.018539228 0.09202015 0.036404725 -0.027103156 -0.022506498 0.13130528 -0.08020185
-0.14664724 -0.06264723 0.020183371 -0.10955678 0.13192084 -0.03772497 0.07630951 0.02662718
0.07956924 -0.117421255 -0.06908417 -0.00016930248 -0.015443384 0.0030640883 0.10552671 -0.024871629
0.013438291 0.15579861 -0.07540635 0.05987817 -0.0012132939 -0.091060676 -0.014157621 0.105868354
-0.20274222 0.05191472 -0.09558339 -0.07181357 0.13431011 0.09153503 0.16896997 0.09133295
-0.16269006 0.15278822 -0.099756345 0.074921735 0.020842485 0.09053422 0.10142996 0.005949556
0.111047015 0.17982024 0.14422455 -0.048629034 -0.089898795 -0.064658076 -0.17441745 0.0839938
0.0065071983 0.17954944 -0.00026929576 0.034603983 -0.052543078 -0.11212491 -0.029135793 -0.08413705
0.0056634094 -0.019862885 0.23320898 0.059013277 0.078575805 -0.0451193 -0.12894392 -0.2750908
0.02383169 0.029043712 0.062147778 -0.14137994 0.089800715 -0.19852175 -0.086420886 0.07642871
-0.012252338 0.016623782 0.026946256 -0.05018982 -0.17668894 0.009037993 -0.085853346 0.086421885
-0.109702036 -0.08503023 -0.093430236 0.05064849 0.02904275 -0.00020981455 -0.070150636 0.07176323
0.16473426 0.07856288 -0.013386367 -0.026403397 -0.13708752 0.041591287 -0.0054760915 0.09754328
0.2068511 -0.1210959 0.008106399 -0.15825331 -0.2252968 0.0053733056 0.036842447 0.20396502
-0.03963981 -0.13119307 -0.13384406 -0.09436726 0.0076789795 0.069234535 0.0998133 -0.09807769
0.023351183 -0.12769496 -0.11439276 0.24033935 0.10797199 0.045513626 0.04921139 -0.23992969
-0.033626616 -0.049996465 0.030917253 0.1322666 -0.01001274 -0.01989174 -0.008764856 0.013605895
0.046946622 -0.13643594 0.12775788 -0.0029612775 -0.058832534 -0.0839479 -0.06527029 -0.12723681
0.039402317 -0.0022252141 -0.06041681 0.14559461 -0.051773526 0.01415566 0.008302097 0.07964967
-0.046805583 -0.06347632 -0.039639633 0.016634816 -0.10866425 -0.008481931 -0.054054156 -0.09258554
-0.028871825 -0.0035748028 0.04409054 0.02295126 0.08809726 0.07780589 0.028322373 -0.05733723
0.08461571 -0.0022730413 0.06302263 0.03827348 0.00041785408 0.0055839433 -0.08434196 -0.07902836
0.054117568 0.008216643 0.037502624 -0.07755486 -0.0027408504 -0.13209847 0.0025846204 -0.07637475
-0.11745397 -0.04661367 -0.062140092 0.16255888 -0.048575666 -0.04441341 0.07993744 0.058520216
-0.06123293 -0.010608029 0.16952625 -0.02831847 0.09760876 0.107737005 0.06761603 0.0017062709
0.05159688 0.050050594 0.06717575 0.08170562 -0.06717014 -0.075281784 -0.04386196 0.12987533
0.11976023 0.07047613 0.05284332 -0.027491206 0.11783287 -0.06166786 0.04346292 0.059035845

pts_linears.2.bias f4 [64]
00000000: c8e2 63bd dca3 c13d 2d66 8cbd 868b 593e
00000010: db21 b2bd ee73 a0bd f6b4 9abd fe3e d63e
00000020: 5188 99bd b166 0d3e 3be0 c4bd 3168 c0bd
00000030: 2865 083d 0df0 1a3e 3f2c 27be 19b4 0ebd
00000040: 9e0e b5be c42a dbbd fab1 023e 44b3 753e
00000050: 3951 3bbe c302 6abe 491c 5abd 7381 a43d
00000060: f5ea 3a3d a2e2 8fbd 7204 b93d dd35 fc3d
00000070: ac6f 09bd c760 dc3c c8f0 77bd 23f3 76bd
00000080: e307 223d 1ffc 95bd cc60 f03d 4f0b 4e3e
00000090: 29b3 583b 9bd1 90bc 4910 2c3c cc17 39bc
000000a0: f9f8 17be 2e6e dc3d 28f4 903d 4347 273d
000000b0: db3d 4d3e d3c4 ba3d b6e4 823e e01f 883e
000000c0: 2ef4 f03c 3ee5 5c3e 643b d03d 53ef 913d
000000d0: def9 efbd 8c0a ce3d 5718 2a3e 5188 f73d
000000e0: 0c38 663d c58b a13d e1fb 343e 812b 543e
000000f0: 33f3 f9bd 6ece edbd bca0 a9bd db8c a9bd
-0.055636197 0.09455082 -0.06855426 0.2124463 -0.08697864 -0.07834612 -0.07554047 0.41844934
-0.074967034 0.13808705 -0.09613081 -0.09394873 0.033299595 0.15130635 -0.16325472 -0.034839723
-0.35362715 -0.10701516 0.12763205 0.23994166 -0.18292703 -0.22852616 -0.05324963 0.08032503
0.04563423 -0.07025649 0.09034051 0.12314961 -0.033553764 0.026901616 -0.06053236 -0.060290467
0.039558303 -0.07323479 0.117372125 0.20121501 0.0033065772 -0.017678073 0.01050193 -0.0112971775
-0.1484107 0.107632026 0.07077819 0.040839445 0.20043127 0.091195725 0.25565118 0.2658682
0.029413309 0.21571824 0.10167578 0.071257256 -0.1171758 0.100606054 0.16610847 0.12086547
0.056205794 0.07887987 0.17674209 0.2071972 -0.1220459 -0.11611639 -0.08282611 -0.08278819

pts_linears.3.weight f4 [64, 127]
00000000: 9133 503d 9824 50bd 4a90 db3c d7c2 54bc
00000010: a8ce 873c 089d a0bd ee0e 8d3d 2f27 093c
00000020: 4c3d 12bc 7433 8dbc 6ddd 893b 75e4 d33d
00000030: 6327 9f3d a848 8fbc 22a9 d5ba 90cf 80bb
00000040: 1b5a 83bc c1b3 123d 5d9a a43c 36f1 583c
00000050: bbeb 8a3c 700c 0b3b 4050 25bb a995 c03a
00000060: 97cd 8c3c a745 d43c c232 faba 6818 a53a
00000070: b549 423b 8e88 10bc 4270 983a 8e8d ba3c
00000080: 5ac4 85b9 1447 e33c 54ae a6bc 55af f03b
00000090: 3ee5 b9bb ff99 a73a b28d d9bc 37b4 0fbc
000000a0: dbdb 1e3b c401 6d3c f99e 233c 6a3d e93c
000000b0: 7a94 553c 10fc 9abc 7611 00bd ce64 8fbb
000000c0: 3dc2 bc3b 1174 d8b9 8ecb bfbb 691b 543c
000000d0: 6db8 823b 351c 44bd 41a3 a5bc 4ac5 51bd
000000e0: b5b1 953c 0263 09bd 3fb1 9f3c 7dc1 363c
000000f0: ee0d 233c d08d 8b3c 1b8b aa3b 28b9 9ebd
00000100: 2216 19be eed4 52bd 3b45 be3c f328 2c3d
00000110: 70b4 cd3c 903e 62bd 70cc 9e3e ec74 21bd
00000120: 538c 11be 4112 3bbd 578e 43bd 0f77 d03d
00000130: a5cd 28be 14e4 34bb b721 18bd ce8a b1be
00000140: f946 e7bd cb8d c13c 42b4 693d 878b ed3d
00000150: e6b6 5dbe f410 3b3d af06 01bc 90c4 39bb
00000160: a0c2 9e3d 65dd 183d 7148 0d3e 06d9 8ebc
00000170: fd2d b6bb 783e 25be a039 9e3c c285 d13d
00000180: 8c14 94bd c9b0 dbbd d3b2 6a3d 72c3 313c
00000190: 017a 273d 6591 0a3d 3b4b 8bbd 01b3 b4bd
000001a0: 94f9 f9bc e2b3 a4bd a6dd 13bd 0c39 6cbb
000001b0: f1b0 88bd 942c e7bd 849a 9d3e 29ee 123c
000001c0: 6b74 483d a465 6e3e 50b2 a0bc 2354 ecbd
000001d0: 4049 983d 4107 72bd a568 8f3c 051f a6bc
000001e0: 4757 7cbd 94e1 3b3e 8a64 8dbc 547a 0b3c
000001f0: 1488 bcbd 96fc ed3c 1ea9 be3c 2196 25bd
00000200: d7b0 1dbd 105c 9e3d c255 6bbd 6a0e 903d
00000210: 5965 49bd 94be b03b 98f2 debc 46f7 e6ba
00000220: daa4 813c 1c39 813d b785 283d ab4a 173e
00000230: b7ee 953d cc77 243d c3b2 12bd 1784 073d
00000240: b6ba e63c 8873 0dbd 3024 fe3c 6210 44bc
00000250: 8b72 33bc 68a4 0b3d f695 053d c5bc 8f3d
00000260: eb03 18bd 3798 74bb c57a abbc d41e e7bc
00000270: 312f ecbc 4aa2 36bd 524a 46bd 3c47 363c
00000280: 7b9b 81bd dce8 6ebd 325f 8e3d 02c1 b4bc
00000290: 1952 02bd deb2 8a3c 0e48 c6bb 8df6 59bd
000002a0: f3fa 3fbd 501f 4e3d 5c2d bd3c 4311 85bd
000002b0: b519 473d 1044 e23b 64e0 a8bd 7c13 4e3c
000002c0: 3441 5b3c 5f57 11bd 4fdf 5c3b 75ba edbc
000002d0: d573 1f3d 0388 063c 372e 303d c961 46bc
000002e0: 959c 873d 6e7d 00bd deab afbc 5bec 113d
000002f0: 98f1 28bd e505 593d 7489 71bd e2e4 b7bd
00000300: 8b38 2a3c 91f1 ae3d c664 88bc f91c 873d
00000310: 673a 7e3d 1d47 0d3e a2c4 893d d6de 8dbc
00000320: 88eb 56bc 0650 283e eadd b83c 66ad 03be
00000330: d00f 353d 40e1 fc3d 87d8 94bd b3de d23d
00000340: 4d3a 21bd 2792 2cbd aab9 1b3e c15c fe3d
00000350: 2c68 103d 2c36 b13d 7d6b 69bd ba95 803d
00000360: 81d1 cb3d afb6 313d 94ec b5bb db62 883d
00000370: eb5c 963d 363e 1b3d 0823 b93d 7bfd 26bc
00000380: 540a 59bd 9156 2a3d 05bc 983c a913 81bd
00000390: 2cc7 99bd 1f0d 9c3b 54a3 503d 2b5a bfbd
000003a0: 98b4 2abd 2cf3 d23a 5aaa 8abd c322 243c
000003b0: 5ce7 2a3e bdd3 273d 7b59 54bc 43c8 aa3d
000003c0: 2cec 1c3e 714b f1bc fc56 693d 4d4f ce3d
000003d0: 8d67 83bc d9d3 6e3d 5fe9 fdbc f637 933c
000003e0: 17ad 5fbc 62ea a63d fbc3 92bd 9b37 a03d
000003f0: 1682 4b3d 7ec3 1abd 9ebb a63b e1c4 9cbc
0.050830428 -0.05081615 0.0268022 -0.012985907 0.016578034 -0.07842451 0.06887613 0.0083711585
-0.008925747 -0.017236449 0.004207304 0.10346309 0.07771184 -0.0174907 -0.0016301016 -0.0039309934
-0.016034177 0.035815958 0.020093137 0.013241103 0.016958108 0.002121713 -0.0025224835 0.001469304
0.017187877 0.02591212 -0.0019088613 0.0012595775 0.0029645984 -0.00882162 0.0011630135 0.022772577
-0.0002551403 0.027743854 -0.020346798 0.00734512 -0.0056730798 0.0012786983 -0.026556823 -0.008770994
0.002423993 0.014465753 0.0099866325 0.028471667 0.013035888 -0.01891902 -0.031266652 -0.0043760305
0.0057604597 -0.00041285207 -0.005853123 0.012945988 0.0039892704 -0.047878463 -0.020219447 -0.05121354
0.018273214 -0.033541687 0.019493697 0.01115453 0.009952052 0.017035395 0.005204571 -0.077501595
-0.14949849 -0.051472597 0.023226371 0.04203124 0.025110453 -0.055235445 0.31015348 -0.039418146
-0.14213686 -0.045671705 -0.047743168 0.101789586 -0.16484697 -0.0027601765 -0.037141528 -0.34676212
-0.11292834 0.023627182 0.057056673 0.11598878 -0.21651801 0.045670465 -0.007875129 -0.002834592
0.077519655 0.037320513 0.13797165 -0.01743747 -0.0055596814 -0.16137111 0.019314587 0.102305904
-0.072304815 -0.107270785 0.057299446 0.01084982 0.040887836 0.033830065 -0.068014584 -0.08823205
-0.030514516 -0.080421224 -0.036100052 -0.0036044745 -0.06674374 -0.112877995 0.3078195 0.008967915
0.04893915 0.2328096 -0.019616276 -0.11539485 0.07435846 -0.05908895 0.017505953 -0.020278463
-0.06160667 0.1834777 -0.017259855 0.008513052 -0.09205642 0.029051106 0.023274 -0.040426377
-0.038498726 0.07732403 -0.057454832 0.07033999 -0.04916892 0.0053938124 -0.027215287 -0.0017621301
0.015825678 0.06309721 0.041143145 0.14774577 0.07320922 0.04015331 -0.03581501 0.033084955
0.028165203 -0.034534007 0.031023115 -0.011966797 -0.010952602 0.034092337 0.032613717 0.07018427
-0.03711311 -0.0037322172 -0.020932565 -0.028212942 -0.028831096 -0.044588365 -0.04841072 0.011125382
-0.06328484 -0.05832754 0.06951751 -0.02206469 -0.031816576 0.016930994 -0.00605107 -0.053213645
-0.046870183 0.05032283 0.023092918 -0.06497433 0.0486085 0.0069050863 -0.08245924 0.012577888
0.013382245 -0.035483714 0.0033702438 -0.029019574 0.038928825 0.008211139 0.043012824 -0.012108275
0.066216625 -0.03136962 -0.021444257 0.035625797 -0.041246027 0.052984137 -0.058968976 -0.08979203
0.010389457 0.08542169 -0.016649615 0.06597323 0.062067416 0.13796659 0.06726958 -0.01731817
-0.013117678 0.16436777 0.022566754 -0.12859115 0.044204533 0.123476505 -0.07267862 0.10296383
-0.03936224 -0.04213157 0.15207544 0.12420035 0.035255596 0.086529106 -0.056987274 0.06278558
0.09952069 0.04338711 -0.005551884 0.0665948 0.073419414 0.037901126 0.09039885 -0.01019227
-0.052988365 0.041586462 0.018644342 -0.06302578 -0.07508692 0.0047623063 0.05093701 -0.0934337
-0.041676134 0.0016094199 -0.06770773 0.010018053 0.16689819 0.040973414 -0.012960787 0.08338978
0.15324467 -0.029454919 0.05696772 0.10073719 -0.016040588 0.058307502 -0.03099507 0.01797102
-0.013652108 0.08150174 -0.071662866 0.07823106 0.049684606 -0.037784092 0.0050882837 -0.019136848

pts_linears.3.bias f4 [64]
00000000: 00bc 1d3e 20f2 77bd 32a5 b9bd 18a3 b2bc
00000010: 3cb7 023b 7141 febd 1bfe 013e a6cc 8b3d
00000020: c322 95bd 78ab 35bd d029 c7bc 4910 dfbc
00000030: 6f3c f93b ba0f e03d 9c26 4dbd 7f1d c43d
00000040: 4500 1d3d 7aa0 443d 74bb 89bc 1bfb 42bd
00000050: bbda 133d b7d0 af3c 6af6 233e e6da e5bd
00000060: 4b5d 62bd 9a0b 98bc adeb d0bd 39c3 3d3c
00000070: 82d1 f8bd 56b3 c4bc 91da 9d3d 9c4f 173e
00000080: 8d91 abbd 8217 083e 7a6a 35bd 0114 933c
00000090: 1800 ac3d f1cf 6fbd a9b5 c5bc 2935 473d
000000a0: 173f 00bd a108 b8bd 3ac4 7c3b dd8e 0b3d
000000b0: af3d 85bc 23ef 78bc d806 db3d 05ca 193e
000000c0: bf7f 39bc 1d76 48bc dad2 8fbd 2f50 94bd
000000d0: 5f35 b43d 36f3 0fbd c122 0fbd f406 a03d
000000e0: f03c d63d da36 833d d658 213e 3c8b e63b
000000f0: b26f d83c 9ca9 32bd d313 893d 18c3 193e
0.15403748 -0.060533643 -0.09064712 -0.021806285 0.0019945642 -0.12414826 0.1269459 0.06826143
-0.07282021 -0.04435298 -0.02431193 -0.027229445 0.007606081 0.109404996 -0.05008565 0.095759384
0.038330335 0.048004605 -0.016813017 -0.047602754 0.03609727 0.021461828 0.16011968 -0.11223392
-0.055264752 -0.01856022 -0.102012016 0.011582189 -0.121493354 -0.024011295 0.07707704 0.14776462
-0.08377371 0.13290218 -0.044290997 0.017953875 0.083984554 -0.058547918 -0.024134474 0.04863468
-0.031310167 -0.08986021 0.0038569109 0.034071792 -0.016264765 -0.015193733 0.10694665 0.1501847
-0.011321961 -0.012235192 -0.070226386 -0.07241856 0.08799242 -0.035144053 -0.034945253 0.07813826
0.10460842 0.064069465 0.15756544 0.007035641 0.026420448 -0.043618783 0.06693234 0.15015829

views_linears.0.weight f4 [32, 91]
00000000: 88b5 d3bd 888f 163e a058 e83d 8285 0a3d
00000010: b378 003e 7f4b 64bd 6d2a ec3d c8c7 b53d
00000020: fe9f 4fbe 891f 3cbd b586 17bd c07b 153c
00000030: b62d d33c 2213 203d 149c d3bc 5315 8e3d
00000040: b310 7f3d 5324 02bd 8592 ecbd b80c 9cbd
00000050: dd9b b0bd da61 d3bb dada 603d d3ac 2cbd
00000060: 2a88 dc3d 7217 813d 1990 013e 961a 8ebd
00000070: a517 3dbd 9df7 05bd addb 363d 8f89 003e
00000080: 6a61 173d f79a 8bbd 1c7b 2ebd 1a7a 0ebd
00000090: 783a 593c c154 313e 187f b13d 9d5e da3c
000000a0: 3cd8 22bd baeb af3d a172 ecbb 70c2 a1bd
000000b0: efd6 3c3d 626f bbbd 8c27 b9bd 09e6 75bd
000000c0: 47a5 abbb 285c 8abd ef66 debd 9e9d 75bd
000000d0: 8843 3bbd f797 acbb 2dd6 fe3c 5d67 bd3d
000000e0: 620c 563e 8400 fa3d 0a4d e43c b8ac 293c
000000f0: 4282 473d 571b 3a3d f254 2e3a 7e07 aebb
00000100: e9b2 643d afd6 ba3c 9e13 7c3d 4ad4 9e3d
00000110: 7b87 73bd 39a4 c2bc fe53 be3d a412 313d
00000120: b5a9 37bd 66d1 873d 8010 74bd 02e6 813d
00000130: 96bf 4c3c f8ec 6e3d c661 253c 12b9 da3d
00000140: 41ca bebc b011 363d 182d f73c d790 24bf
00000150: 11a7 0ebe f8b0 733d dc2d d63e 2040 64bd
00000160: bf89 8cbd 49fa 4fbf e527 17bf e80b a0bc
00000170: 3e7e 12bd daa5 8ebd 3dce ebbb 8769 2d3e
00000180: 3b26 813d d5ef 3fbd 5f78 f23c 65c1 b1bd
00000190: 463c 2cbe 82aa 2b3c 890a 8ebd 6662 303d
000001a0: dc1a ad3d f51e f8bd d54a 783d 8171 b7bc
000001b0: 94d1 88bc cf4c 14be deed 36bd 44bc 1e3d
000001c0: 9742 44bd a463 cd3d 1179 33bd 672e 6ebd
000001d0: 3203 e93d 2525 9dbc d231 883d 6f79 203d
000001e0: d833 87bd 2842 173d 12d4 253d 600f a5bd
000001f0: de1a 1dbd 96b1 103d 3b96 abbc 10bc 15bd
00000200: 03ce 50bd b5a6 9fbd 4a9d a4bb c78e 71bd
00000210: 31da 30bc d78b ffbd 9327 59bd 67b1 8e3c
00000220: 4558 d63d ef92 babd aa9f 22bd 1f1a e93c
00000230: 5a7f 59bd 5fde febd bd1a a33c 8718 fa3d
00000240: a5b6 a03d 9de7 8ebb e442 12bb 3129 833d
00000250: c30c 1bbe 0f3a 633d 4806 9e3d 01fa 64bd
00000260: 6ed8 93bc aa55 083e 16c1 f63c 1d26 253d
00000270: c4e4 4a3d 34aa e3bd 2487 6b3b d36c 70bd
00000280: fa87 d93c 6356 95bc a027 92bd e34b dc3c
00000290: 9a92 17bc e7bd adb9 a042 d03c 6d31 a4bc
000002a0: b80d d9bd 8419 48be f085 503e 4ab7 a53e
000002b0: 9843 ce3d 7f9d 493d c785 40bf ef03 9d3d
000002c0: a615 47be 31d1 6dbd 1261 8b3b 580c 65bd
000002d0: 3724 57be e488 ee3e 802f d23d 2ff4 1b3d
000002e0: 660d 89bb fe98 463d 8416 893e 716c f63d
000002f0: d206 a2bd 9655 67bd 2563 ce3c 2e53 33be
00000300: df0c e43c e8d6 90bd 19ac a9bd 9a07 2f3d
00000310: db14 02be 2c46 65bc ee0f 97bd 5dda b8bd
00000320: 54fb e73b 0fbc 63bd ceb5 ef3d 96a4 99bd
00000330: b1f2 873d 669c 2bbe 7932 363d 1eff 90bc
00000340: bdb2 ff3d 4a17 febc 9f5f a2bd 0b71 b73d
00000350: 89b4 893d 48dd 86bd 3e5b e1bc 1941 d6bc
00000360: 3310 4e3d a0fc 773d 82f8 0dbd dcc3 5d3d
00000370: e810 d5bc d1a2 3c3d 6ff3 29be 3034 d73d
00000380: d4bf 833c 6355 0abe d192 d53b 21bf c93d
00000390: af95 a13d a01b 1f3d e916 c43c f153 90ba
000003a0: e40a 0b3b 62cc da3d 6275 8a3d 80c2 073e
000003b0: be98 823c 0de3 c7bd 5396 073e ee1d dabd
000003c0: 2ad3 103c cf82 25bd a23b 01bd 4d94 903d
000003d0: 7fd6 943d d5a7 79bd 2371 1b3c a2dc ab3d
000003e0: 3e80 96bd 42df 06bd 9897 983c d4a7 97bd
000003f0: 7435 61bd 912c 7b3d 806e a2bd cd09 0739
-0.10337359 0.1470319 0.11345029 0.03381873 0.12546043 -0.05573606 0.115315296 0.08875996
-0.20275876 -0.04592851 -0.0369937 0.009123743 0.025778633 0.039080746 -0.02583126 0.06937661
0.062271785 -0.031772923 -0.11551384 -0.076196134 -0.086234786 -0.006450874 0.054896213 -0.042157006
0.10768159 0.063033 0.12652625 -0.069386646 -0.046165127 -0.032706846 0.044643093 0.12552474
0.036958136 -0.068166666 -0.042597875 -0.034784414 0.013258569 0.17317487 0.08666819 0.026656443
-0.039757 0.08589883 -0.0072158133 -0.07898414 0.046103414 -0.09152104 -0.09040746 -0.06003383
-0.0052382085 -0.06755859 -0.10859477 -0.05996477 -0.0457187 -0.005267139 0.031107986 0.092482306
0.20903161 0.122071296 0.027868766 0.010356121 0.048708208 0.04543623 0.0006650231 -0.0053109517
0.055834685 0.022807447 0.061542146 0.07755335 -0.059455376 -0.023759948 0.09293364 0.043230668
-0.04483958 0.066317365 -0.059586048 0.06342699 0.0124968495 0.05833146 0.010094112 0.106798306
-0.023289802 0.044450462 0.03017287 -0.6428351 -0.13930918 0.059494942 0.41831863 -0.055725217
-0.068622105 -0.8124128 -0.5904525 -0.019536927 -0.035764925 -0.069652274 -0.0071962164 0.16934787
0.0630612 -0.04685958 0.029598413 -0.08679465 -0.16819867 0.010477664 -0.06935603 0.04306259
0.08452389 -0.121152796 0.06061824 -0.02239299 -0.016701497 -0.14482425 -0.04466044 0.038753763
-0.047915068 0.100287706 -0.04381663 -0.05814972 0.113775626 -0.019182751 0.066501275 0.039178308
-0.06601685 0.036928326 0.04048545 -0.08059573 -0.0383557 0.03532561 -0.020945659 -0.036556304
-0.050977718 -0.07795469 -0.005023633 -0.058974054 -0.010794208 -0.12477844 -0.053016257 0.017418576
0.10466055 -0.091100566 -0.03970305 0.028454838 -0.053099968 -0.12444758 0.01991021 0.122117095
0.07847337 -0.0043611065 -0.0022317702 0.06404341 -0.15141587 0.05547529 0.07716042 -0.055902485
-0.018047538 0.13313928 0.030121367 0.04031955 0.049534574 -0.11116448 0.0035938704 -0.058697533
0.026554096 -0.018229669 -0.07136464 0.026891654 -0.009251261 -0.0003313862 0.025422394 -0.0200431
-0.1059832 -0.19540983 0.20363593 0.323664 0.10071486 0.049222466 -0.7520413 0.07666766
-0.19441852 -0.05806083 0.004253515 -0.055919975 -0.21009909 0.46588814 0.10262966 0.03807467
-0.0041825054 0.04848575 0.2677499 0.12032402 -0.07911457 -0.056478105 0.02519376 -0.175122
0.027838169 -0.0707224 -0.08284778 0.04273186 -0.12703268 -0.013993781 -0.07376085 -0.090260245
0.007079521 -0.05559927 0.11704598 -0.075020954 0.066380866 -0.1675888 0.04448173 -0.017699774
0.124852635 -0.031016964 -0.079283945 0.08957108 0.067238875 -0.06585175 -0.027509328 -0.026154088
0.050308418 0.060543656 -0.034660824 0.054141864 -0.026009038 0.04605371 -0.16596769 0.10508001
0.016082682 -0.13509135 0.006517746 0.09850908 0.07889878 0.038844705 0.023936706 -0.0011011345
0.0021216208 0.10683514 0.0676067 0.1325779 0.015941974 -0.097601034 0.13240938 -0.1065024
0.008839408 -0.040407952 -0.03155101 0.07059536 0.072674744 -0.060951073 0.009487423 0.08391692
-0.07348679 -0.03292776 0.018626973 -0.074050575 -0.054982617 0.0613218 -0.079312325 0.00012878254

views_linears.0.bias f4 [32]
00000000: 54a9 093d 104b e93c c4d0 113d f922 893d
00000010: 230e ddbd e94a d73d 2c8f 353c c506 263d
00000020: 8818 6e3d d70b b03b d9c4 03bd 38c2 0d3d
00000030: 07ec b53c 4902 d1bc 494e 253c a2d5 c73d
00000040: 1cd9 f1bb ea72 e23d a64d 5ebd 385b bb3d
00000050: a997 d93c c299 c73d 903a 773d 17f8 be3d
00000060: 3fcd 003d 5530 f83c e989 38bc ad8b 243d
00000070: 0ee1 d9bd 8496 a43c fe28 cbbd 15b5 dabd
0.03360875 0.028478175 0.035599485 0.06696124 -0.10793712 0.10512335 0.011081498 0.0405338
0.058128864 0.005372505 -0.03217015 0.03460905 0.022207273 -0.025513785 0.010089465 0.09757544
-0.007380618 0.11057074 -0.05427327 0.09148258 0.026561575 0.09746124 0.060358584 0.09324663
0.031445738 0.030296484 -0.011263349 0.040172268 -0.10638629 0.020091303 -0.09919928 -0.1067907

feature_linear.weight f4 [64, 64]
00000000: d102 013d 619d 963d f3db ba3d f98e dabd
00000010: 3563 793a 0897 54bd 2a7f 1d3c 297e 863d
00000020: 55ce 7c3c 64e5 f9bd 5f1c e03c ff18 8bbd
00000030: 4aa3 bd3d 5a0b cebc 8a2a 3ebd e720 89bd
00000040: 5620 10be 580d 6d3d ee22 943c bc15 cbbd
00000050: 1dcb 8c3d 4402 87bd c114 24be 0fe6 42bc
00000060: 8ad0 30bd fed2 29be 4a4b 2e3c ca43 db3d
00000070: a7d0 a3ba 9122 aebc 4d89 90bd 1d5a 953d
00000080: 3bd8 ccbb 2dc8 553d 3bbe 09be 6755 2bbd
00000090: 7b79 4fbb a22a bebd ca0d 56be fa31 81bd
000000a0: eefe 24bd f2df 35be 89cd 2c3d b1e4 6cbd
000000b0: b9cc b5bd 561d a13d 2b76 8ebd d8f5 393c
000000c0: eecf 773d 7a8c 3b3c 3a2d ddbd ce9b 14bd
000000d0: 42bc 113e a56a a7bd 2166 5e3c dfda 77bd
000000e0: a6ac 303d d5e4 5b3d fbda 02be b9f1 14be
000000f0: 6fa1 a5bd 2c2a 4fbd 7361 56bd 9b59 8dbd
00000100: b130 983c f5db 66bd b4cd 61bd 53e6 e8bd
00000110: 9e76 a2bd 5ce5 35be 787c 98bd ad4f 8abd
00000120: e216 15bd a3f3 ab3d 24a7 efbd b405 7d3d
00000130: 0249 9e3d 1e0e a43d 799e 08be 8abe a8bd
00000140: 2ec2 42bc ab68 c2bd d005 60bc 56f8 5cbd
00000150: 7d49 3ebc 6908 5d3d 793f fabd 3e02 6b3c
00000160: 3c3a 0b3e d874 20be 138f fbbd f411 a5bd
00000170: 8110 21be 99fe ffbd 3cf4 773d 0061 093e
00000180: d73e 923c e6a9 73bd 73ae aa3c 8f80 653d
00000190: fb30 6e3d cf0e cabd df1e ccbd d0d6 f03d
000001a0: 95a1 1fbe abcf 223d d300 ad39 5b8f 47bd
000001b0: fbf3 893d 66f5 10be 5002 803d 5132 f3ba
000001c0: e4c7 033d 5ffc 30bc aacd 12be dc73 9a3d
000001d0: a01d 8fbd 7f84 4cbe e836 a93d c301 f3bd
000001e0: 919a a33d 9b54 b43c 6a1f a1bc 48bb 003e
000001f0: 6653 5f3d b2a8 e53c 7b90 693b a20f 27bd
00000200: 0f27 2c3d d2fd 443b bf37 f4bd e463 b8bd
00000210: 31bf 9ebd 0136 afbd 2bda a3bc 7837 fd3d
00000220: fee8 903d eda2 093e 9d66 c43d 778d 84bd
00000230: 4bf1 043e 08f2 4cbd 1424 033c debe 75bd
00000240: d6c5 943b e74a a9bd fd09 b8bd 786e 0a3c
00000250: df7b 5ebd df26 de3d 34e5 6dbd 423c 233d
00000260: 799e af3d 35fb e0bb 8fb0 dd3d ca75 abbd
00000270: 94e4 0abe bb59 eb3d 75f2 c13c 6d36 d43d
00000280: 4b4a d43b 835a 9b3d 3cd0 ccbd 1815 16be
00000290: d376 48bd 5ed9 77bd 90e3 d43d 2249 c93d
000002a0: b22a c13d 571e dcbd f1c5 f63d aa95 1d3e
000002b0: 7616 d83d 7c41 efbc adfd 2fbe 013b c2bd
000002c0: 43b3 8c3d ef12 313c cb55 44bc 4ab3 a23d
000002d0: 3705 633d 93b1 1dbd 68d3 bf3d bc18 cdbc
000002e0: 3819 1fbe e3e3 fdbc dd74 f63c 53ac 683d
000002f0: 81b2 43bd 43b8 ebbd 3e52 ee3b 7b43 76bd
00000300: 7be2 423c 9eb2 4f3c 537d debd 34c1 de3d
00000310: 8e14 e2bd 2e81 373d eddc adbd 0ada d1bc
00000320: 24f9 e0bd 9f21 4a3d bca4 bbbd ed49 a3bc
00000330: 4669 c7bd a583 06bc 146e 94bd ff84 493d
00000340: 8dee 66bd 873a 9abd 08ca 0bbe 91fc f73b
00000350: 8987 fabd c578 adbc 226b 65bd d5c0 79bd
00000360: bc25 80bd 59f5 513d 543e 403c ba5c 4f3d
00000370: 159a f63c 3ad7 acbc 2496 15be 006d 4e3c
00000380: 72a7 fbbc 05e7 fe3c d788 46bd c565 b5bd
00000390: 9cb1 1fbd 1307 b83d 37d8 133c 5e78 4b3d
000003a0: cc49 29be 6c78 d6bb d7fd e2bd 21a3 e5bd
000003b0: d10b 993d 512a dcbd 7e4d 0cbe ec93 be3d
000003c0: 3132 a5bd ead5 c0bd 7156 b9bc 8aea d4bc
000003d0: 0eda 633d 9e0c 313d 5be4 88bd b936 c2bd
000003e0: 4dec d8bd 7b5f 273d b777 d1bd 9d80 a8bb
000003f0: e595 87bd d482 30bd abc1 513c 43c7 5b3d
0.031496827 0.073542364 0.09123983 -0.10671801 0.0009513379 -0.051901847 0.009612838 0.06567032
0.015430053 -0.12201956 0.027357278 -0.06791877 0.092596605 -0.025151897 -0.046427287 -0.06695729
-0.14074835 0.057874054 0.018083062 -0.09916255 0.06874678 -0.06592229 -0.16023542 -0.011895671
-0.04316763 -0.16584393 0.0106380675 0.10706289 -0.0012498096 -0.021256717 -0.07057438 0.07292578
-0.0062513626 0.052192856 -0.13451473 -0.041829493 -0.0031658101 -0.09285475 -0.20903698 -0.063083604
-0.040282182 -0.1776121 0.0421882 -0.057835285 -0.088769384 0.078669235 -0.069561325 0.011350118
0.06050103 0.011447066 -0.10799642 -0.0362814 0.14231971 -0.08174638 0.013574154 -0.060511466
0.0431334 0.053685028 -0.12778847 -0.14545335 -0.08087432 -0.050577328 -0.05233903 -0.069018565
0.018577905 -0.05636211 -0.055127814 -0.11372056 -0.07932781 -0.17763275 -0.074456155 -0.06753478
-0.036398776 0.083960794 -0.117018014 0.061773017 0.07728769 0.08010505 -0.13341703 -0.082394674
-0.011887116 -0.0949262 -0.013673261 -0.05394777 -0.011614201 0.0539631 -0.12219138 0.014343796
0.13596433 -0.15669572 -0.122831486 -0.08060065 -0.15728952 -0.124997325 0.060535654 0.13415909
0.01785223 -0.0594882 0.020835137 0.056030806 0.05815218 -0.09866106 -0.09966826 0.11759722
-0.15588982 0.03974883 0.00032997745 -0.0487207 0.06735989 -0.14156112 0.06250441 -0.0018554424
0.032173052 -0.010802357 -0.14336267 0.0754163 -0.069880724 -0.19972418 0.08262426 -0.118655704
0.079884656 0.022013 -0.0196683 0.12571442 0.054522894 0.028034542 0.0035639096 -0.040786393
0.042029437 0.0030058515 -0.11924695 -0.090034276 -0.077513106 -0.08555222 -0.020001492 0.123640954
0.0707569 0.13441058 0.095898844 -0.06472295 0.12982671 -0.050035506 0.008004207 -0.05999648
0.0045401854 -0.082662396 -0.0898628 0.008449189 -0.05431735 0.10847258 -0.058079913 0.03985239
0.08575148 -0.0068658837 0.108246915 -0.08372076 -0.13563758 0.11491724 0.023675183 0.103619434
0.006478583 0.07585623 -0.10000655 -0.14656484 -0.048941445 -0.060510032 0.103949666 0.09828402
0.094319716 -0.10747974 0.12049473 0.15389124 0.10551159 -0.02920603 -0.17186613 -0.0948391
0.06870129 0.010807737 -0.011983345 0.07944353 0.055424895 -0.038499426 0.093664944 -0.025036208
-0.15536964 -0.030992454 0.030085022 0.056804966 -0.047777656 -0.115097545 0.0072729876 -0.06012295
0.011894817 0.012676863 -0.108637474 0.10876694 -0.11039077 0.04480093 -0.08489404 -0.025616664
-0.1098502 0.04934847 -0.0916228 -0.019932711 -0.09736876 -0.008210097 -0.07247558 0.0491991
-0.056379844 -0.075306945 -0.13651288 0.00756795 -0.122328825 -0.021175751 -0.056010373 -0.060974915
-0.06257197 0.051259372 0.01173361 0.05062554 0.030102769 -0.021098722 -0.14608055 0.01259923
-0.030719493 0.031116018 -0.048470344 -0.088573016 -0.03898774 0.08985724 0.009023718 0.049675338
-0.16532058 -0.006545117 -0.11083572 -0.11212755 0.07472957 -0.10750259 -0.13701436 0.093055576
-0.08066214 -0.09415801 -0.022624226 -0.025990743 0.055627875 0.043224923 -0.0668418 -0.09483094
-0.10591946 0.04086254 -0.10227912 -0.005142285 -0.06620387 -0.043093517 0.012802522 0.053656828

feature_linear.bias f4 [64]
00000000: 1727 a6bd d063 e93d 9642 d53d 1b7a e43d
00000010: 8182 e73c d721 803b e5af ae3d bd13 69ba
00000020: 1976 923d 3588 f5bd b38c 8cbc 9970 8cbd
00000030: 1db1 023e 3007 89bd 89d3 663d 17f9 083d
00000040: a8ea 0bbd a5d5 2e3c 355a 80bd b533 d53c
00000050: 8916 2a3d 5928 a43d 2795 f63d 2c23 97bc
00000060: ac0a e7bd ef92 8c3d 600a 10bd f72a 8d3c
00000070: ead9 ecbd 523d 9d3d f77d 053d e982 18be
00000080: e2db 793d 381f 153b 3801 31bd dd42 eebd
00000090: aecc 5cbb d62f 05be f566 7c3d 9fbd b7bd
000000a0: dcee ddbc 6343 a23c 547e 20bc 95a2 93bc
000000b0: bf5b 6cbd 5761 b63d ed68 223c 6512 82bd
000000c0: bc6a 82bd 1aa6 063d 100d 953d 88db 2e3d
000000d0: 18c3 073d 626f d2bd cbb9 033e 0ef8 f3bd
000000e0: 9c00 87bc 4bc1 ae3c bc5f 75bc 84f6 d03d
000000f0: c80a babd 6a28 993d 3912 d43d 2e99 b4bd
-0.081129245 0.11395991 0.10413091 0.11156102 0.028260471 0.003910284 0.08529643 -0.0008891186
0.071514316 -0.1198887 -0.017156934 -0.06857414 0.12762876 -0.06690824 0.05635408 0.033440676
-0.034159333 0.010671054 -0.062672056 0.026025632 0.041525397 0.08015508 0.12040167 -0.018449388
-0.112813324 0.06863963 -0.035166144 0.017232401 -0.11565001 0.076777115 0.032590833 -0.14893688
0.061000712 0.0022754204 -0.043214053 -0.11633847 -0.0033691335 -0.13006529 0.061621625 -0.08971714
-0.027091436 0.019807523 -0.009795744 -0.018021861 -0.057704683 0.08905285 0.009912712 -0.06351165
-0.06368014 0.03287325 0.07277882 0.04268983 0.03314504 -0.10275151 0.12863843 -0.11912547
-0.016479783 0.021332404 -0.014976438 0.10203269 -0.090840876 0.074784115 0.10355038 -0.08818279

alpha_linear.weight f4 [1, 64]
00000000: 8f8b 2a3d d778 1dbd f22e 93bd 1a16 3ebd
00000010: 285a 17bd 93d4 85bd baa1 0cbd c66a 1e3d
00000020: f7a0 473d ca25 92bd b4db e6bd cc7e bbbd
00000030: 5701 99bc 20ce a53c 6657 913d bde7 6b3d
00000040: 4482 ef3d 16c2 13bd 0bd5 d3bd 5353 e9bd
00000050: 70e5 cc3d 2d33 bcbd b8f4 c93c 9009 8bbd
00000060: bd6d e8bd d698 d33c 22e7 a0bd 32f6 49bd
00000070: 1345 63bd fa61 f43d e36c cb3c 0394 ab3a
00000080: f1dd b03a e8c2 d13d 49e2 01bd 9256 23bd
00000090: deb3 babb 2e76 bebd 18e1 b53d 2602 0cbd
000000a0: 288e 86bd 4922 a73d b388 22bd c952 f83d
000000b0: ef05 e33d eca1 d9bd 61f2 aa3d 1ee6 c73d
000000c0: e90a 143d c92f a93c 6cae dfbd e8f3 38bd
000000d0: 90d0 a0bc 7b3c 3f3d 460d e33d 1cff 893d
000000e0: cbb0 be3d e53b c5bd e123 b03d 97da f03d
000000f0: 0eb1 273d ba76 dabd 2ca4 d93c 73d6 ed3d
0.041637 -0.03844532 -0.071866885 -0.046407796 -0.036951214 -0.06534686 -0.034333922 0.038676046
0.048737492 -0.07136114 -0.11272374 -0.09155044 -0.018677397 0.02023989 0.07096748 0.05759405
0.11694768 -0.036073767 -0.10343369 -0.11392846 0.10004699 -0.091894485 0.024652824 -0.06788933
-0.11349056 0.025829714 -0.07856585 -0.049307056 -0.055485796 0.1193275 0.024832195 0.0013090376
0.0013493878 0.102422535 -0.031709943 -0.03987748 -0.0056977114 -0.09299885 0.08880824 -0.034181736
-0.06570083 0.08160836 -0.039681148 0.12125165 0.11085116 -0.10626587 0.08347011 0.09760688
0.036143217 0.020652669 -0.1092194 -0.045154482 -0.0196307 0.046688538 0.11086516 0.067381114
0.09311064 -0.096305646 0.08600593 0.11760443 0.040940337 -0.106671765 0.026567541 0.116131686

rho_linear.weight f4 [1, 32]
00000000: 21a4 22bf cfa2 5abe c134 7bbe 2d56 0bbf
00000010: 8b9b 43bf fcab 043e 164d 80be b635 6b3e
00000020: 292a 37be c7d9 9cbf 52f3 c63e ecb7 bfbe
00000030: 765c 32bf d6ab e2be fb21 273e a700 813e
00000040: d386 49be 97bd 313e fb42 463e ace2 243e
00000050: 56a0 9e3d 693f 953e 61db 253e f17f 25bf
00000060: 2884 e3be 85b8 4b3e f401 33be 5ef1 80be
00000070: fd22 f73e 662f c0be 80fb 8cbe a6e6 dbbe
-0.6353169 -0.21351169 -0.24531843 -0.5442837 -0.76409215 0.12956232 -0.25058812 0.22969708
-0.17887177 -1.225396 0.38857514 -0.3744501 -0.69672334 -0.44271725 0.16321556 0.2519581
-0.19680338 0.17357479 0.19361489 0.16102093 0.077454254 0.2914994 0.16196968 -0.6464835
-0.44436765 0.19894607 -0.17481214 -0.2518415 0.4826888 -0.37536162 -0.2753563 -0.42949408
